…
snapshot_prefix: "velodyne"
average_loss: 100
iter_size: 2
I1127 15:01:33.397783 18320 solver.cpp:77] Creating training net from train_net file: models/velodyne/VGG16/faster_rcnn_end2end/train_rpn_downsample4.prototxt
I1127 15:01:33.398322 18320 net.cpp:53] Initializing net from parameters: 
name: "VGG_ILSVRC_16_layers"
state {
  phase: TRAIN
}
layer {
  name: "input-data"
  type: "Python"
  top: "data"
  top: "im_info"
  top: "gt_boxes"
  python_param {
    module: "roi_data_layer.layer"
    layer: "RoIDataLayer"
    param_str: "\'num_classes\': 2"
  }
}
layer {
  name: "conv1_1_6_channels"
  type: "Convolution"
  bottom: "data"
  top: "conv1_1"
  param {
    lr_mult: 1
    decay_mult: 2
  }
  param {
    lr_mult: 1
    decay_mult: 2
  }
  convolution_param {
    num_output: 64
    pad: 1
    kernel_size: 3
  }
}
layer {
  name: "relu1_1"
  type: "ReLU"
  bottom: "conv1_1"
  top: "conv1_1"
}
layer {
  name: "conv1_2"
  type: "Convolution"
  bottom: "conv1_1"
  top: "conv1_2"
  param {
    lr_mult: 1
    decay_mult: 2
  }
  param {
    lr_mult: 1
    decay_mult: 2
  }
  convolution_param {
    num_output: 64
    pad: 1
    kernel_size: 3
  }
}
layer {
  name: "relu1_2"
  type: "ReLU"
  bottom: "conv1_2"
  top: "conv1_2"
}
layer {
  name: "pool1"
  type: "Pooling"
  bottom: "conv1_2"
  top: "pool1"
  pooling_param {
    pool: MAX
    kernel_size: 2
    stride: 2
  }
}
layer {
  name: "conv2_1"
  type: "Convolution"
  bottom: "pool1"
  top: "conv2_1"
  param {
    lr_mult: 1
    decay_mult: 2
  }
  param {
    lr_mult: 1
    decay_mult: 2
  }
  convolution_param {
    num_output: 128
    pad: 1
    kernel_size: 3
  }
}
layer {
  name: "relu2_1"
  type: "ReLU"
  bottom: "conv2_1"
  top: "conv2_1"
}
layer {
  name: "conv2_2"
  type: "Convolution"
  bottom: "conv2_1"
  top: "conv2_2"
  param {
    lr_mult: 1
    decay_mult: 2
  }
  param {
    lr_mult: 1
    decay_mult: 2
  }
  convolution_param {
    num_output: 128
    pad: 1
    kernel_size: 3
  }
}
layer {
  name: "relu2_2"
  type: "ReLU"
  bottom: "conv2_2"
  top: "conv2_2"
}
layer {
  name: "pool2"
  type: "Pooling"
  bottom: "conv2_2"
  top: "pool2"
  pooling_param {
    pool: MAX
    kernel_size: 2
    stride: 2
  }
}
layer {
  name: "conv3_1"
  type: "Convolution"
  bottom: "pool2"
  top: "conv3_1"
  param {
    lr_mult: 1
  }
  param {
    lr_mult: 2
  }
  convolution_param {
    num_output: 256
    pad: 1
    kernel_size: 3
  }
}
layer {
  name: "relu3_1"
  type: "ReLU"
  bottom: "conv3_1"
  top: "conv3_1"
}
layer {
  name: "conv3_2"
  type: "Convolution"
  bottom: "conv3_1"
  top: "conv3_2"
  param {
    lr_mult: 1
  }
  param {
    lr_mult: 2
  }
  convolution_param {
    num_output: 256
    pad: 1
    kernel_size: 3
  }
}
layer {
  name: "relu3_2"
  type: "ReLU"
  bottom: "conv3_2"
  top: "conv3_2"
}
layer {
  name: "conv3_3"
  type: "Convolution"
  bottom: "conv3_2"
  top: "conv3_3"
  param {
    lr_mult: 1
  }
  param {
    lr_mult: 2
  }
  convolution_param {
    num_output: 256
    pad: 1
    kernel_size: 3
  }
}
layer {
  name: "relu3_3"
  type: "ReLU"
  bottom: "conv3_3"
  top: "conv3_3"
}
layer {
  name: "pool3"
  type: "Pooling"
  bottom: "conv3_3"
  top: "pool3"
  pooling_param {
    pool: MAX
    kernel_size: 2
    stride: 2
  }
}
layer {
  name: "conv4_1"
  type: "Convolution"
  bottom: "pool3"
  top: "conv4_1"
  param {
    lr_mult: 1
  }
  param {
    lr_mult: 2
  }
  convolution_param {
    num_output: 512
    pad: 1
    kernel_size: 3
  }
}
layer {
  name: "relu4_1"
  type: "ReLU"
  bottom: "conv4_1"
  top: "conv4_1"
}
layer {
  name: "conv4_2"
  type: "Convolution"
  bottom: "conv4_1"
  top: "conv4_2"
  param {
    lr_mult: 1
  }
  param {
    lr_mult: 2
  }
  convolution_param {
    num_output: 512
    pad: 1
    kernel_size: 3
  }
}
layer {
  name: "relu4_2"
  type: "ReLU"
  bottom: "conv4_2"
  top: "conv4_2"
}
layer {
  name: "conv4_3"
  type: "Convolution"
  bottom: "conv4_2"
  top: "conv4_3"
  param {
    lr_mult: 1
  }
  param {
    lr_mult: 2
  }
  convolution_param {
    num_output: 512
    pad: 1
    kernel_size: 3
  }
}
layer {
  name: "relu4_3"
  type: "ReLU"
  bottom: "conv4_3"
  top: "conv4_3"
}
layer {
  name: "conv5_1"
  type: "Convolution"
  bottom: "conv4_3"
  top: "conv5_1"
  param {
    lr_mult: 1
  }
  param {
    lr_mult: 2
  }
  convolution_param {
    num_output: 512
    pad: 1
    kernel_size: 3
  }
}
layer {
  name: "relu5_1"
  type: "ReLU"
  bottom: "conv5_1"
  top: "conv5_1"
}
layer {
  name: "conv5_2"
  type: "Convolution"
  bottom: "conv5_1"
  top: "conv5_2"
  param {
    lr_mult: 1
  }
  param {
    lr_mult: 2
  }
  convolution_param {
    num_output: 512
    pad: 1
    kernel_size: 3
  }
}
layer {
  name: "relu5_2"
  type: "ReLU"
  bottom: "conv5_2"
  top: "conv5_2"
}
layer {
  name: "conv5_3"
  type: "Convolution"
  bottom: "conv5_2"
  top: "conv5_3"
  param {
    lr_mult: 1
  }
  param {
    lr_mult: 2
  }
  convolution_param {
    num_output: 512
    pad: 1
    kernel_size: 3
  }
}
layer {
  name: "relu5_3"
  type: "ReLU"
  bottom: "conv5_3"
  top: "conv5_3"
}
layer {
  name: "deconv_1"
  type: "Deconvolution"
  bottom: "conv5_3"
  top: "deconv_1"
  param {
    lr_mult: 1
  }
  param {
    lr_mult: 2
  }
  convolution_param {
    num_output: 512
    pad: 1
    kernel_size: 4
    group: 512
    stride: 2
    weight_filler {
      type: "bilinear"
    }
  }
}
layer {
  name: "rpn_conv/3x3"
  type: "Convolution"
  bottom: "deconv_1"
  top: "rpn/output"
  param {
    lr_mult: 1
  }
  param {
    lr_mult: 2
  }
  convolution_param {
    num_output: 512
    pad: 1
    kernel_size: 3
    stride: 1
    weight_filler {
      type: "gaussian"
      std: 0.01
    }
    bias_filler {
      type: "constant"
      value: 0
    }
  }
}
layer {
  name: "rpn_relu/3x3"
  type: "ReLU"
  bottom: "rpn/output"
  top: "rpn/output"
}
layer {
  name: "rpn_cls_score_pedestrian"
  type: "Convolution"
  bottom: "rpn/output"
  top: "rpn_cls_score_pedestrian"
  param {
    lr_mult: 1
  }
  param {
    lr_mult: 2
  }
  convolution_param {
    num_output: 2
    pad: 0
    kernel_size: 1
    stride: 1
    weight_filler {
      type: "gaussian"
      std: 0.01
    }
    bias_filler {
      type: "constant"
      value: 0
    }
  }
}
layer {
  name: "rpn_bbox_pred_pedestrian"
  type: "Convolution"
  bottom: "rpn/output"
  top: "rpn_bbox_pred_pedestrian"
  param {
    lr_mult: 1
  }
  param {
    lr_mult: 2
  }
  convolution_param {
    num_output: 4
    pad: 0
    kernel_size: 1
    stride: 1
    weight_filler {
      type: "gaussian"
      std: 0.01
    }
    bias_filler {
      type: "constant"
      value: 0
    }
  }
}
layer {
  name: "rpn_cls_score_reshape_pedestrian"
  type: "Reshape"
  bottom: "rpn_cls_score_pedestrian"
  top: "rpn_cls_score_reshape_pedestrian"
  reshape_param {
    shape {
      dim: 0
      dim: 2
      dim: -1
      dim: 0
    }
  }
}
layer {
  name: "rpn-data-pedestrian"
  type: "Python"
  bottom: "rpn_cls_score_pedestrian"
  bottom: "gt_boxes"
  bottom: "im_info"
  bottom: "data"
  top: "rpn_labels_pedestrian"
  top: "rpn_bbox_targets_pedestrian"
  top: "rpn_bbox_inside_weights_pedestrian"
  top: "rpn_bbox_outside_weights_pedestrian"
  python_param {
    module: "rpn.anchor_target_layer_pedestrian"
    layer: "AnchorTargetLayer"
    param_str: "\'feat_stride\': 4"
  }
}
layer {
  name: "rpn_loss_cls_pedestrian"
  type: "SoftmaxWithLoss"
  bottom: "rpn_cls_score_reshape_pedestrian"
  bottom: "rpn_labels_pedestrian"
  top: "rpn_cls_loss_pedestrian"
  loss_weight: 1
  propagate_down: true
  propagate_down: false
  loss_param {
    ignore_label: -1
    normalize: true
  }
}
layer {
  name: "rpn_loss_bbox_pedestrian"
  type: "SmoothL1Loss"
  bottom: "rpn_bbox_pred_pedestrian"
  bottom: "rpn_bbox_targets_pedestrian"
  bottom: "rpn_bbox_inside_weights_pedestrian"
  bottom: "rpn_bbox_outside_weights_pedestrian"
  top: "rpn_loss_bbox_pedestrian"
  loss_weight: 1
  smooth_l1_loss_param {
    sigma: 3
  }
}
I1127 15:01:33.398550 18320 layer_factory.hpp:77] Creating layer input-data
I1127 15:01:33.444638 18320 net.cpp:86] Creating Layer input-data
I1127 15:01:33.444680 18320 net.cpp:382] input-data -> data
I1127 15:01:33.444690 18320 net.cpp:382] input-data -> im_info
I1127 15:01:33.444696 18320 net.cpp:382] input-data -> gt_boxes
'num_classes': 2
RoiDataLayer: name_to_top: {'gt_boxes': 2, 'data': 0, 'im_info': 1}
I1127 15:01:33.446947 18320 net.cpp:124] Setting up input-data
I1127 15:01:33.446982 18320 net.cpp:131] Top shape: 1 6 600 600 (2160000)
I1127 15:01:33.446987 18320 net.cpp:131] Top shape: 1 3 (3)
I1127 15:01:33.446990 18320 net.cpp:131] Top shape: 1 4 (4)
I1127 15:01:33.446992 18320 net.cpp:139] Memory required for data: 8640028
I1127 15:01:33.446997 18320 layer_factory.hpp:77] Creating layer data_input-data_0_split
I1127 15:01:33.447007 18320 net.cpp:86] Creating Layer data_input-data_0_split
I1127 15:01:33.447011 18320 net.cpp:408] data_input-data_0_split <- data
I1127 15:01:33.447018 18320 net.cpp:382] data_input-data_0_split -> data_input-data_0_split_0
I1127 15:01:33.447026 18320 net.cpp:382] data_input-data_0_split -> data_input-data_0_split_1
I1127 15:01:33.447077 18320 net.cpp:124] Setting up data_input-data_0_split
I1127 15:01:33.447099 18320 net.cpp:131] Top shape: 1 6 600 600 (2160000)
I1127 15:01:33.447103 18320 net.cpp:131] Top shape: 1 6 600 600 (2160000)
I1127 15:01:33.447105 18320 net.cpp:139] Memory required for data: 25920028
I1127 15:01:33.447108 18320 layer_factory.hpp:77] Creating layer conv1_1_6_channels
I1127 15:01:33.447118 18320 net.cpp:86] Creating Layer conv1_1_6_channels
I1127 15:01:33.447123 18320 net.cpp:408] conv1_1_6_channels <- data_input-data_0_split_0
I1127 15:01:33.447127 18320 net.cpp:382] conv1_1_6_channels -> conv1_1
I1127 15:01:34.076644 18320 net.cpp:124] Setting up conv1_1_6_channels
I1127 15:01:34.076680 18320 net.cpp:131] Top shape: 1 64 600 600 (23040000)
I1127 15:01:34.076683 18320 net.cpp:139] Memory required for data: 118080028
I1127 15:01:34.076704 18320 layer_factory.hpp:77] Creating layer relu1_1
I1127 15:01:34.076733 18320 net.cpp:86] Creating Layer relu1_1
I1127 15:01:34.076740 18320 net.cpp:408] relu1_1 <- conv1_1
I1127 15:01:34.076745 18320 net.cpp:369] relu1_1 -> conv1_1 (in-place)
I1127 15:01:34.076922 18320 net.cpp:124] Setting up relu1_1
I1127 15:01:34.076930 18320 net.cpp:131] Top shape: 1 64 600 600 (23040000)
I1127 15:01:34.076933 18320 net.cpp:139] Memory required for data: 210240028
I1127 15:01:34.076936 18320 layer_factory.hpp:77] Creating layer conv1_2
I1127 15:01:34.076951 18320 net.cpp:86] Creating Layer conv1_2
I1127 15:01:34.076954 18320 net.cpp:408] conv1_2 <- conv1_1
I1127 15:01:34.076959 18320 net.cpp:382] conv1_2 -> conv1_2
I1127 15:01:34.081362 18320 net.cpp:124] Setting up conv1_2
I1127 15:01:34.081383 18320 net.cpp:131] Top shape: 1 64 600 600 (23040000)
I1127 15:01:34.081387 18320 net.cpp:139] Memory required for data: 302400028
I1127 15:01:34.081415 18320 layer_factory.hpp:77] Creating layer relu1_2
I1127 15:01:34.081426 18320 net.cpp:86] Creating Layer relu1_2
I1127 15:01:34.081430 18320 net.cpp:408] relu1_2 <- conv1_2
I1127 15:01:34.081454 18320 net.cpp:369] relu1_2 -> conv1_2 (in-place)
I1127 15:01:34.082319 18320 net.cpp:124] Setting up relu1_2
I1127 15:01:34.082329 18320 net.cpp:131] Top shape: 1 64 600 600 (23040000)
I1127 15:01:34.082334 18320 net.cpp:139] Memory required for data: 394560028
I1127 15:01:34.082335 18320 layer_factory.hpp:77] Creating layer pool1
I1127 15:01:34.082360 18320 net.cpp:86] Creating Layer pool1
I1127 15:01:34.082365 18320 net.cpp:408] pool1 <- conv1_2
I1127 15:01:34.082370 18320 net.cpp:382] pool1 -> pool1
I1127 15:01:34.082453 18320 net.cpp:124] Setting up pool1
I1127 15:01:34.082458 18320 net.cpp:131] Top shape: 1 64 300 300 (5760000)
I1127 15:01:34.082460 18320 net.cpp:139] Memory required for data: 417600028
I1127 15:01:34.082463 18320 layer_factory.hpp:77] Creating layer conv2_1
I1127 15:01:34.082473 18320 net.cpp:86] Creating Layer conv2_1
I1127 15:01:34.082494 18320 net.cpp:408] conv2_1 <- pool1
I1127 15:01:34.082499 18320 net.cpp:382] conv2_1 -> conv2_1
I1127 15:01:34.084152 18320 net.cpp:124] Setting up conv2_1
I1127 15:01:34.084164 18320 net.cpp:131] Top shape: 1 128 300 300 (11520000)
I1127 15:01:34.084167 18320 net.cpp:139] Memory required for data: 463680028
I1127 15:01:34.084193 18320 layer_factory.hpp:77] Creating layer relu2_1
I1127 15:01:34.084203 18320 net.cpp:86] Creating Layer relu2_1
I1127 15:01:34.084206 18320 net.cpp:408] relu2_1 <- conv2_1
I1127 15:01:34.084213 18320 net.cpp:369] relu2_1 -> conv2_1 (in-place)
I1127 15:01:34.085011 18320 net.cpp:124] Setting up relu2_1
I1127 15:01:34.085021 18320 net.cpp:131] Top shape: 1 128 300 300 (11520000)
I1127 15:01:34.085026 18320 net.cpp:139] Memory required for data: 509760028
I1127 15:01:34.085028 18320 layer_factory.hpp:77] Creating layer conv2_2
I1127 15:01:34.085053 18320 net.cpp:86] Creating Layer conv2_2
I1127 15:01:34.085058 18320 net.cpp:408] conv2_2 <- conv2_1
I1127 15:01:34.085064 18320 net.cpp:382] conv2_2 -> conv2_2
I1127 15:01:34.088793 18320 net.cpp:124] Setting up conv2_2
I1127 15:01:34.088812 18320 net.cpp:131] Top shape: 1 128 300 300 (11520000)
I1127 15:01:34.088815 18320 net.cpp:139] Memory required for data: 555840028
I1127 15:01:34.088840 18320 layer_factory.hpp:77] Creating layer relu2_2
I1127 15:01:34.088848 18320 net.cpp:86] Creating Layer relu2_2
I1127 15:01:34.088851 18320 net.cpp:408] relu2_2 <- conv2_2
I1127 15:01:34.088858 18320 net.cpp:369] relu2_2 -> conv2_2 (in-place)
I1127 15:01:34.089054 18320 net.cpp:124] Setting up relu2_2
I1127 15:01:34.089062 18320 net.cpp:131] Top shape: 1 128 300 300 (11520000)
I1127 15:01:34.089064 18320 net.cpp:139] Memory required for data: 601920028
I1127 15:01:34.089067 18320 layer_factory.hpp:77] Creating layer pool2
I1127 15:01:34.089074 18320 net.cpp:86] Creating Layer pool2
I1127 15:01:34.089078 18320 net.cpp:408] pool2 <- conv2_2
I1127 15:01:34.089082 18320 net.cpp:382] pool2 -> pool2
I1127 15:01:34.089146 18320 net.cpp:124] Setting up pool2
I1127 15:01:34.089152 18320 net.cpp:131] Top shape: 1 128 150 150 (2880000)
I1127 15:01:34.089154 18320 net.cpp:139] Memory required for data: 613440028
I1127 15:01:34.089156 18320 layer_factory.hpp:77] Creating layer conv3_1
I1127 15:01:34.089165 18320 net.cpp:86] Creating Layer conv3_1
I1127 15:01:34.089169 18320 net.cpp:408] conv3_1 <- pool2
I1127 15:01:34.089175 18320 net.cpp:382] conv3_1 -> conv3_1
I1127 15:01:34.091444 18320 net.cpp:124] Setting up conv3_1
I1127 15:01:34.091455 18320 net.cpp:131] Top shape: 1 256 150 150 (5760000)
I1127 15:01:34.091457 18320 net.cpp:139] Memory required for data: 636480028
I1127 15:01:34.091485 18320 layer_factory.hpp:77] Creating layer relu3_1
I1127 15:01:34.091492 18320 net.cpp:86] Creating Layer relu3_1
I1127 15:01:34.091495 18320 net.cpp:408] relu3_1 <- conv3_1
I1127 15:01:34.091516 18320 net.cpp:369] relu3_1 -> conv3_1 (in-place)
I1127 15:01:34.091704 18320 net.cpp:124] Setting up relu3_1
I1127 15:01:34.091712 18320 net.cpp:131] Top shape: 1 256 150 150 (5760000)
I1127 15:01:34.091714 18320 net.cpp:139] Memory required for data: 659520028
I1127 15:01:34.091717 18320 layer_factory.hpp:77] Creating layer conv3_2
I1127 15:01:34.091744 18320 net.cpp:86] Creating Layer conv3_2
I1127 15:01:34.091748 18320 net.cpp:408] conv3_2 <- conv3_1
I1127 15:01:34.091753 18320 net.cpp:382] conv3_2 -> conv3_2
I1127 15:01:34.095722 18320 net.cpp:124] Setting up conv3_2
I1127 15:01:34.095739 18320 net.cpp:131] Top shape: 1 256 150 150 (5760000)
I1127 15:01:34.095758 18320 net.cpp:139] Memory required for data: 682560028
I1127 15:01:34.095767 18320 layer_factory.hpp:77] Creating layer relu3_2
I1127 15:01:34.095774 18320 net.cpp:86] Creating Layer relu3_2
I1127 15:01:34.095777 18320 net.cpp:408] relu3_2 <- conv3_2
I1127 15:01:34.095782 18320 net.cpp:369] relu3_2 -> conv3_2 (in-place)
I1127 15:01:34.095988 18320 net.cpp:124] Setting up relu3_2
I1127 15:01:34.095994 18320 net.cpp:131] Top shape: 1 256 150 150 (5760000)
I1127 15:01:34.095996 18320 net.cpp:139] Memory required for data: 705600028
I1127 15:01:34.095999 18320 layer_factory.hpp:77] Creating layer conv3_3
I1127 15:01:34.096015 18320 net.cpp:86] Creating Layer conv3_3
I1127 15:01:34.096019 18320 net.cpp:408] conv3_3 <- conv3_2
I1127 15:01:34.096024 18320 net.cpp:382] conv3_3 -> conv3_3
I1127 15:01:34.099931 18320 net.cpp:124] Setting up conv3_3
I1127 15:01:34.099951 18320 net.cpp:131] Top shape: 1 256 150 150 (5760000)
I1127 15:01:34.099969 18320 net.cpp:139] Memory required for data: 728640028
I1127 15:01:34.099975 18320 layer_factory.hpp:77] Creating layer relu3_3
I1127 15:01:34.099984 18320 net.cpp:86] Creating Layer relu3_3
I1127 15:01:34.099988 18320 net.cpp:408] relu3_3 <- conv3_3
I1127 15:01:34.099992 18320 net.cpp:369] relu3_3 -> conv3_3 (in-place)
I1127 15:01:34.100208 18320 net.cpp:124] Setting up relu3_3
I1127 15:01:34.100216 18320 net.cpp:131] Top shape: 1 256 150 150 (5760000)
I1127 15:01:34.100219 18320 net.cpp:139] Memory required for data: 751680028
I1127 15:01:34.100221 18320 layer_factory.hpp:77] Creating layer pool3
I1127 15:01:34.100229 18320 net.cpp:86] Creating Layer pool3
I1127 15:01:34.100234 18320 net.cpp:408] pool3 <- conv3_3
I1127 15:01:34.100237 18320 net.cpp:382] pool3 -> pool3
I1127 15:01:34.100307 18320 net.cpp:124] Setting up pool3
I1127 15:01:34.100313 18320 net.cpp:131] Top shape: 1 256 75 75 (1440000)
I1127 15:01:34.100316 18320 net.cpp:139] Memory required for data: 757440028
I1127 15:01:34.100317 18320 layer_factory.hpp:77] Creating layer conv4_1
I1127 15:01:34.100327 18320 net.cpp:86] Creating Layer conv4_1
I1127 15:01:34.100330 18320 net.cpp:408] conv4_1 <- pool3
I1127 15:01:34.100337 18320 net.cpp:382] conv4_1 -> conv4_1
I1127 15:01:34.108484 18320 net.cpp:124] Setting up conv4_1
I1127 15:01:34.108515 18320 net.cpp:131] Top shape: 1 512 75 75 (2880000)
I1127 15:01:34.108518 18320 net.cpp:139] Memory required for data: 768960028
I1127 15:01:34.108546 18320 layer_factory.hpp:77] Creating layer relu4_1
I1127 15:01:34.108561 18320 net.cpp:86] Creating Layer relu4_1
I1127 15:01:34.108566 18320 net.cpp:408] relu4_1 <- conv4_1
I1127 15:01:34.108574 18320 net.cpp:369] relu4_1 -> conv4_1 (in-place)
I1127 15:01:34.109392 18320 net.cpp:124] Setting up relu4_1
I1127 15:01:34.109403 18320 net.cpp:131] Top shape: 1 512 75 75 (2880000)
I1127 15:01:34.109406 18320 net.cpp:139] Memory required for data: 780480028
I1127 15:01:34.109408 18320 layer_factory.hpp:77] Creating layer conv4_2
I1127 15:01:34.109438 18320 net.cpp:86] Creating Layer conv4_2
I1127 15:01:34.109442 18320 net.cpp:408] conv4_2 <- conv4_1
I1127 15:01:34.109452 18320 net.cpp:382] conv4_2 -> conv4_2
I1127 15:01:34.117885 18320 net.cpp:124] Setting up conv4_2
I1127 15:01:34.117919 18320 net.cpp:131] Top shape: 1 512 75 75 (2880000)
I1127 15:01:34.117923 18320 net.cpp:139] Memory required for data: 792000028
I1127 15:01:34.117960 18320 layer_factory.hpp:77] Creating layer relu4_2
I1127 15:01:34.117974 18320 net.cpp:86] Creating Layer relu4_2
I1127 15:01:34.117979 18320 net.cpp:408] relu4_2 <- conv4_2
I1127 15:01:34.117990 18320 net.cpp:369] relu4_2 -> conv4_2 (in-place)
I1127 15:01:34.118809 18320 net.cpp:124] Setting up relu4_2
I1127 15:01:34.118820 18320 net.cpp:131] Top shape: 1 512 75 75 (2880000)
I1127 15:01:34.118822 18320 net.cpp:139] Memory required for data: 803520028
I1127 15:01:34.118825 18320 layer_factory.hpp:77] Creating layer conv4_3
I1127 15:01:34.118855 18320 net.cpp:86] Creating Layer conv4_3
I1127 15:01:34.118860 18320 net.cpp:408] conv4_3 <- conv4_2
I1127 15:01:34.118867 18320 net.cpp:382] conv4_3 -> conv4_3
I1127 15:01:34.127789 18320 net.cpp:124] Setting up conv4_3
I1127 15:01:34.127840 18320 net.cpp:131] Top shape: 1 512 75 75 (2880000)
I1127 15:01:34.127843 18320 net.cpp:139] Memory required for data: 815040028
I1127 15:01:34.127853 18320 layer_factory.hpp:77] Creating layer relu4_3
I1127 15:01:34.127866 18320 net.cpp:86] Creating Layer relu4_3
I1127 15:01:34.127869 18320 net.cpp:408] relu4_3 <- conv4_3
I1127 15:01:34.127895 18320 net.cpp:369] relu4_3 -> conv4_3 (in-place)
I1127 15:01:34.128085 18320 net.cpp:124] Setting up relu4_3
I1127 15:01:34.128093 18320 net.cpp:131] Top shape: 1 512 75 75 (2880000)
I1127 15:01:34.128095 18320 net.cpp:139] Memory required for data: 826560028
I1127 15:01:34.128098 18320 layer_factory.hpp:77] Creating layer conv5_1
I1127 15:01:34.128154 18320 net.cpp:86] Creating Layer conv5_1
I1127 15:01:34.128159 18320 net.cpp:408] conv5_1 <- conv4_3
I1127 15:01:34.128165 18320 net.cpp:382] conv5_1 -> conv5_1
I1127 15:01:34.137415 18320 net.cpp:124] Setting up conv5_1
I1127 15:01:34.137451 18320 net.cpp:131] Top shape: 1 512 75 75 (2880000)
I1127 15:01:34.137455 18320 net.cpp:139] Memory required for data: 838080028
I1127 15:01:34.137466 18320 layer_factory.hpp:77] Creating layer relu5_1
I1127 15:01:34.137497 18320 net.cpp:86] Creating Layer relu5_1
I1127 15:01:34.137503 18320 net.cpp:408] relu5_1 <- conv5_1
I1127 15:01:34.137512 18320 net.cpp:369] relu5_1 -> conv5_1 (in-place)
I1127 15:01:34.137707 18320 net.cpp:124] Setting up relu5_1
I1127 15:01:34.137714 18320 net.cpp:131] Top shape: 1 512 75 75 (2880000)
I1127 15:01:34.137717 18320 net.cpp:139] Memory required for data: 849600028
I1127 15:01:34.137719 18320 layer_factory.hpp:77] Creating layer conv5_2
I1127 15:01:34.137732 18320 net.cpp:86] Creating Layer conv5_2
I1127 15:01:34.137737 18320 net.cpp:408] conv5_2 <- conv5_1
I1127 15:01:34.137742 18320 net.cpp:382] conv5_2 -> conv5_2
I1127 15:01:34.147553 18320 net.cpp:124] Setting up conv5_2
I1127 15:01:34.147586 18320 net.cpp:131] Top shape: 1 512 75 75 (2880000)
I1127 15:01:34.147589 18320 net.cpp:139] Memory required for data: 861120028
I1127 15:01:34.147616 18320 layer_factory.hpp:77] Creating layer relu5_2
I1127 15:01:34.147629 18320 net.cpp:86] Creating Layer relu5_2
I1127 15:01:34.147635 18320 net.cpp:408] relu5_2 <- conv5_2
I1127 15:01:34.147661 18320 net.cpp:369] relu5_2 -> conv5_2 (in-place)
I1127 15:01:34.147847 18320 net.cpp:124] Setting up relu5_2
I1127 15:01:34.147855 18320 net.cpp:131] Top shape: 1 512 75 75 (2880000)
I1127 15:01:34.147857 18320 net.cpp:139] Memory required for data: 872640028
I1127 15:01:34.147860 18320 layer_factory.hpp:77] Creating layer conv5_3
I1127 15:01:34.147872 18320 net.cpp:86] Creating Layer conv5_3
I1127 15:01:34.147876 18320 net.cpp:408] conv5_3 <- conv5_2
I1127 15:01:34.147882 18320 net.cpp:382] conv5_3 -> conv5_3
I1127 15:01:34.157434 18320 net.cpp:124] Setting up conv5_3
I1127 15:01:34.157472 18320 net.cpp:131] Top shape: 1 512 75 75 (2880000)
I1127 15:01:34.157475 18320 net.cpp:139] Memory required for data: 884160028
I1127 15:01:34.157505 18320 layer_factory.hpp:77] Creating layer relu5_3
I1127 15:01:34.157518 18320 net.cpp:86] Creating Layer relu5_3
I1127 15:01:34.157541 18320 net.cpp:408] relu5_3 <- conv5_3
I1127 15:01:34.157558 18320 net.cpp:369] relu5_3 -> conv5_3 (in-place)
I1127 15:01:34.157744 18320 net.cpp:124] Setting up relu5_3
I1127 15:01:34.157752 18320 net.cpp:131] Top shape: 1 512 75 75 (2880000)
I1127 15:01:34.157754 18320 net.cpp:139] Memory required for data: 895680028
I1127 15:01:34.157757 18320 layer_factory.hpp:77] Creating layer deconv_1
I1127 15:01:34.157769 18320 net.cpp:86] Creating Layer deconv_1
I1127 15:01:34.157773 18320 net.cpp:408] deconv_1 <- conv5_3
I1127 15:01:34.157780 18320 net.cpp:382] deconv_1 -> deconv_1
I1127 15:01:34.158578 18320 net.cpp:124] Setting up deconv_1
I1127 15:01:34.158586 18320 net.cpp:131] Top shape: 1 512 150 150 (11520000)
I1127 15:01:34.158588 18320 net.cpp:139] Memory required for data: 941760028
I1127 15:01:34.158593 18320 layer_factory.hpp:77] Creating layer rpn_conv/3x3
I1127 15:01:34.158628 18320 net.cpp:86] Creating Layer rpn_conv/3x3
I1127 15:01:34.158633 18320 net.cpp:408] rpn_conv/3x3 <- deconv_1
I1127 15:01:34.158638 18320 net.cpp:382] rpn_conv/3x3 -> rpn/output
I1127 15:01:34.186146 18320 net.cpp:124] Setting up rpn_conv/3x3
I1127 15:01:34.186172 18320 net.cpp:131] Top shape: 1 512 150 150 (11520000)
I1127 15:01:34.186174 18320 net.cpp:139] Memory required for data: 987840028
I1127 15:01:34.186183 18320 layer_factory.hpp:77] Creating layer rpn_relu/3x3
I1127 15:01:34.186192 18320 net.cpp:86] Creating Layer rpn_relu/3x3
I1127 15:01:34.186197 18320 net.cpp:408] rpn_relu/3x3 <- rpn/output
I1127 15:01:34.186203 18320 net.cpp:369] rpn_relu/3x3 -> rpn/output (in-place)
I1127 15:01:34.187036 18320 net.cpp:124] Setting up rpn_relu/3x3
I1127 15:01:34.187091 18320 net.cpp:131] Top shape: 1 512 150 150 (11520000)
I1127 15:01:34.187093 18320 net.cpp:139] Memory required for data: 1033920028
I1127 15:01:34.187096 18320 layer_factory.hpp:77] Creating layer rpn/output_rpn_relu/3x3_0_split
I1127 15:01:34.187101 18320 net.cpp:86] Creating Layer rpn/output_rpn_relu/3x3_0_split
I1127 15:01:34.187103 18320 net.cpp:408] rpn/output_rpn_relu/3x3_0_split <- rpn/output
I1127 15:01:34.187124 18320 net.cpp:382] rpn/output_rpn_relu/3x3_0_split -> rpn/output_rpn_relu/3x3_0_split_0
I1127 15:01:34.187129 18320 net.cpp:382] rpn/output_rpn_relu/3x3_0_split -> rpn/output_rpn_relu/3x3_0_split_1
I1127 15:01:34.187199 18320 net.cpp:124] Setting up rpn/output_rpn_relu/3x3_0_split
I1127 15:01:34.187206 18320 net.cpp:131] Top shape: 1 512 150 150 (11520000)
I1127 15:01:34.187209 18320 net.cpp:131] Top shape: 1 512 150 150 (11520000)
I1127 15:01:34.187211 18320 net.cpp:139] Memory required for data: 1126080028
I1127 15:01:34.187213 18320 layer_factory.hpp:77] Creating layer rpn_cls_score_pedestrian
I1127 15:01:34.187225 18320 net.cpp:86] Creating Layer rpn_cls_score_pedestrian
I1127 15:01:34.187230 18320 net.cpp:408] rpn_cls_score_pedestrian <- rpn/output_rpn_relu/3x3_0_split_0
I1127 15:01:34.187235 18320 net.cpp:382] rpn_cls_score_pedestrian -> rpn_cls_score_pedestrian
I1127 15:01:34.188133 18320 net.cpp:124] Setting up rpn_cls_score_pedestrian
I1127 15:01:34.188141 18320 net.cpp:131] Top shape: 1 2 150 150 (45000)
I1127 15:01:34.188144 18320 net.cpp:139] Memory required for data: 1126260028
I1127 15:01:34.188149 18320 layer_factory.hpp:77] Creating layer rpn_cls_score_pedestrian_rpn_cls_score_pedestrian_0_split
I1127 15:01:34.188155 18320 net.cpp:86] Creating Layer rpn_cls_score_pedestrian_rpn_cls_score_pedestrian_0_split
I1127 15:01:34.188170 18320 net.cpp:408] rpn_cls_score_pedestrian_rpn_cls_score_pedestrian_0_split <- rpn_cls_score_pedestrian
I1127 15:01:34.188174 18320 net.cpp:382] rpn_cls_score_pedestrian_rpn_cls_score_pedestrian_0_split -> rpn_cls_score_pedestrian_rpn_cls_score_pedestrian_0_split_0
I1127 15:01:34.188179 18320 net.cpp:382] rpn_cls_score_pedestrian_rpn_cls_score_pedestrian_0_split -> rpn_cls_score_pedestrian_rpn_cls_score_pedestrian_0_split_1
I1127 15:01:34.188228 18320 net.cpp:124] Setting up rpn_cls_score_pedestrian_rpn_cls_score_pedestrian_0_split
I1127 15:01:34.188235 18320 net.cpp:131] Top shape: 1 2 150 150 (45000)
I1127 15:01:34.188238 18320 net.cpp:131] Top shape: 1 2 150 150 (45000)
I1127 15:01:34.188239 18320 net.cpp:139] Memory required for data: 1126620028
I1127 15:01:34.188241 18320 layer_factory.hpp:77] Creating layer rpn_bbox_pred_pedestrian
I1127 15:01:34.188248 18320 net.cpp:86] Creating Layer rpn_bbox_pred_pedestrian
I1127 15:01:34.188252 18320 net.cpp:408] rpn_bbox_pred_pedestrian <- rpn/output_rpn_relu/3x3_0_split_1
I1127 15:01:34.188257 18320 net.cpp:382] rpn_bbox_pred_pedestrian -> rpn_bbox_pred_pedestrian
I1127 15:01:34.189680 18320 net.cpp:124] Setting up rpn_bbox_pred_pedestrian
I1127 15:01:34.189692 18320 net.cpp:131] Top shape: 1 4 150 150 (90000)
I1127 15:01:34.189693 18320 net.cpp:139] Memory required for data: 1126980028
I1127 15:01:34.189705 18320 layer_factory.hpp:77] Creating layer rpn_cls_score_reshape_pedestrian
I1127 15:01:34.189713 18320 net.cpp:86] Creating Layer rpn_cls_score_reshape_pedestrian
I1127 15:01:34.189715 18320 net.cpp:408] rpn_cls_score_reshape_pedestrian <- rpn_cls_score_pedestrian_rpn_cls_score_pedestrian_0_split_0
I1127 15:01:34.189720 18320 net.cpp:382] rpn_cls_score_reshape_pedestrian -> rpn_cls_score_reshape_pedestrian
I1127 15:01:34.189755 18320 net.cpp:124] Setting up rpn_cls_score_reshape_pedestrian
I1127 15:01:34.189760 18320 net.cpp:131] Top shape: 1 2 150 150 (45000)
I1127 15:01:34.189761 18320 net.cpp:139] Memory required for data: 1127160028
I1127 15:01:34.189764 18320 layer_factory.hpp:77] Creating layer rpn-data-pedestrian
I1127 15:01:34.191833 18320 net.cpp:86] Creating Layer rpn-data-pedestrian
I1127 15:01:34.191843 18320 net.cpp:408] rpn-data-pedestrian <- rpn_cls_score_pedestrian_rpn_cls_score_pedestrian_0_split_1
I1127 15:01:34.191848 18320 net.cpp:408] rpn-data-pedestrian <- gt_boxes
I1127 15:01:34.191850 18320 net.cpp:408] rpn-data-pedestrian <- im_info
I1127 15:01:34.191853 18320 net.cpp:408] rpn-data-pedestrian <- data_input-data_0_split_1
I1127 15:01:34.191856 18320 net.cpp:382] rpn-data-pedestrian -> rpn_labels_pedestrian
I1127 15:01:34.191862 18320 net.cpp:382] rpn-data-pedestrian -> rpn_bbox_targets_pedestrian
I1127 15:01:34.191867 18320 net.cpp:382] rpn-data-pedestrian -> rpn_bbox_inside_weights_pedestrian
I1127 15:01:34.191876 18320 net.cpp:382] rpn-data-pedestrian -> rpn_bbox_outside_weights_pedestrian
I1127 15:01:34.192543 18320 net.cpp:124] Setting up rpn-data-pedestrian
I1127 15:01:34.192553 18320 net.cpp:131] Top shape: 1 1 150 150 (22500)
I1127 15:01:34.192555 18320 net.cpp:131] Top shape: 1 4 150 150 (90000)
I1127 15:01:34.192559 18320 net.cpp:131] Top shape: 1 4 150 150 (90000)
I1127 15:01:34.192560 18320 net.cpp:131] Top shape: 1 4 150 150 (90000)
I1127 15:01:34.192562 18320 net.cpp:139] Memory required for data: 1128330028
I1127 15:01:34.192564 18320 layer_factory.hpp:77] Creating layer rpn_loss_cls_pedestrian
I1127 15:01:34.192570 18320 net.cpp:86] Creating Layer rpn_loss_cls_pedestrian
I1127 15:01:34.192572 18320 net.cpp:408] rpn_loss_cls_pedestrian <- rpn_cls_score_reshape_pedestrian
I1127 15:01:34.192576 18320 net.cpp:408] rpn_loss_cls_pedestrian <- rpn_labels_pedestrian
…
